ddqn_model_final.pth (torch, 83118 bytes, 24 tensors)

0.weight f4 [64, 4]
0	0x3f0c95b1	0.5491591
1	0xbed6d638	-0.4196031
2	0x3f5bdedc	0.8588693
3	0x3f1318b7	0.57459587
4	0xbe914834	-0.283754
5	0xbe99ab8f	-0.300137
6	0x3ed19b79	0.4093893
7	0x3f0d14aa	0.55109656
8	0xbe9ad249	-0.3023856
9	0x3f0a1c38	0.5394931
10	0x3f2e73ee	0.68145645
11	0x3f949784	1.1608739
12	0x3da85275	0.082188524
13	0x3f2b4fe0	0.66918755
14	0x3eb342d3	0.3501192
15	0x3dee89c4	0.116473705
16	0x3f8d72a5	1.1050612
17	0x3eb0992a	0.34491855
18	0xbdc36527	-0.09540778
19	0xbf445a21	-0.76700026
20	0x3f5452a8	0.82938623
21	0x3f00183e	0.5003699
22	0xbdbd4274	-0.092411906
23	0xbf938297	-1.1524228
24	0x3e980d1d	0.29697505
25	0xbbe58013	-0.007003793
26	0x3fd98c45	1.6995932
27	0x3f1ff05d	0.6247614
28	0x3e489a8d	0.19590206
29	0x3f03df17	0.51512283
30	0xbd63a965	-0.05558147
31	0xbf27de03	-0.6557314
32	0x3f38ff5c	0.7226465
33	0xbec0cc41	-0.37655833
34	0x3edf3a2f	0.43599078
35	0x3ec6362c	0.38713205
36	0x3e3d7f93	0.18505697
37	0xbec1e18f	-0.378674
38	0x3eeddac2	0.4645596
39	0x3c9d0556	0.019167583
40	0x3f155043	0.58325595
41	0x3efc31c5	0.4925672
42	0x3b736ec4	0.003714488
43	0xbecef7d6	-0.4042346
44	0x3d037800	0.032096863
45	0xbe9629ec	-0.2932886
46	0x3fa82bb4	1.3138337
47	0xbe67eb20	-0.22648287
48	0x3f64000f	0.8906259
49	0x3ef7ff5e	0.48437017
50	0x3d062c9d	0.03275739
51	0xbeb7d780	-0.359066
52	0x3f3d74c3	0.7400629
53	0xbc87ec00	-0.016592026
54	0x3df09058	0.117462814
55	0xbf5c27c2	-0.85998166
56	0x3bc91a80	0.0061371922
57	0x3e877aa8	0.26460767
58	0xbdaa1408	-0.08304602
59	0xbce0b340	-0.027429223
60	0xbef8b4f2	-0.4857555
61	0x3d6c2650	0.057653725
62	0x3e9c0092	0.30469185
63	0xbdd94440	-0.10608721
64	0x3f8aa037	1.0830144
65	0x3e94ec78	0.2908666
66	0x3da50420	0.080574274
67	0x39f2177a	0.00046175328
68	0x3f1d8d75	0.6154397
69	0x3d591c6b	0.053005617
70	0xbf172458	-0.5903983
71	0x3e7bb38c	0.2458021
72	0x3f63d94e	0.89003456
73	0x3c8ffea6	0.01757748
74	0xbd8b9d31	-0.06817091
75	0xbc66904c	-0.014072489
76	0x3f866c95	1.0501887
77	0x3d5ba9d3	0.053628754
78	0xbf40baae	-0.7528485
79	0xbea77f7a	-0.32714444
80	0xbe99c7de	-0.300353
81	0x3d922b08	0.07137114
82	0xbed6f4c0	-0.41983604
83	0xbece9f44	-0.40355885
84	0x3f8aa82d	1.0832573
85	0xbeaf29c1	-0.34211543
86	0x3f836a2c	1.0266776
87	0xbd4134b1	-0.04716939
88	0x3f9aae97	1.208453
89	0x3ea69d0e	0.32541698
90	0xbe83ec8f	-0.25766417
91	0xbf6304bd	-0.88679105
92	0x3f9aa31f	1.2081031
93	0xbe999942	-0.2999974
94	0xbda8c0ea	-0.082399204
95	0x3e326f7f	0.17425345
96	0xbc8cf81e	-0.017208155
97	0x3f23f851	0.64050776
98	0xbe853f25	-0.26024738
99	0xbf8a6634	-1.081244
100	0x3ee032c9	0.43788746
101	0xbedad04f	-0.42737052
102	0x3e43bcc3	0.19114976
103	0xbdb40e93	-0.08791842
104	0xbeb5a8ee	-0.35480446
105	0x3eb43fc2	0.35204893
106	0xbead4b3a	-0.33846456
107	0xbedd3f10	-0.43212175
108	0xbf18878c	-0.5958183
109	0x3f07072f	0.52745336
110	0x3f11d322	0.5696279
111	0x3f555ed8	0.83347845
112	0xbe067962	-0.13132241
113	0xbe4c1722	-0.199307
114	0x3f916926	1.1360214
115	0xbd5c6974	-0.053811505
116	0xbeea88b8	-0.45807433
117	0x3eb0dd4e	0.34543842
118	0xbe9321c8	-0.2873671
119	0x3ea8c682	0.3296395
120	0x3d93a6cc	0.07209548
121	0x3eb56902	0.35431677
122	0x3ef234e7	0.47305986
123	0xbeb4b755	-0.3529612
124	0xbeba53df	-0.36392114
125	0x3d144df1	0.036207143
126	0x3f0e5880	0.5560379
127	0x3f8b4659	1.0880843
128	0x3f9ba3da	1.2159379
129	0xbedd23f0	-0.4319148
130	0x3f5221f6	0.8208307
131	0x3dcd1438	0.10013622
132	0xbf906b6b	-1.1282781
133	0x3e613cd5	0.21995862
134	0xbe39b5cf	-0.1813576
135	0x3f5be5a5	0.85897285
136	0xbeca96e4	-0.39568245
137	0x3ecd43d4	0.4009081
138	0x3d0603f0	0.0327186
139	0xbedd7196	-0.43250722
140	0x3f8bbbbe	1.0916669
141	0x3ea894bf	0.32925984
142	0xbe04f25e	-0.1298308
143	0xbf656d5d	-0.8962
144	0x3ee634bd	0.4496211
145	0x3d99e203	0.075138114
146	0xbf26a1e7	-0.65090793
147	0xbee619af	-0.4494147
148	0x3f72f885	0.9491046
149	0xbe55286a	-0.20816198
150	0x3fc71583	1.555344
151	0x3f98ab9e	1.1927373
152	0x3f162c4d	0.5866135
153	0x3e3aef90	0.18255448
154	0xbefa6488	-0.48904824
155	0xbf08ffbd	-0.53515226
156	0x3e126420	0.14296007
157	0xbeb7c948	-0.35895753
158	0x3f329565	0.6975921
159	0x3f20c22c	0.6279628
160	0xbe3907d8	-0.18069398
161	0x3eabbd04	0.33542645
162	0xbecfd5c6	-0.40592784
163	0xbe97fb3a	-0.29683858
164	0xbf210305	-0.6289523
165	0xbe3eb21b	-0.1862263
166	0x3f613c4d	0.87982637
167	0x3f574343	0.8408701
168	0x3ea53837	0.3226945
169	0xbea3d977	-0.3200185
170	0x3fa9e0b3	1.3271698
171	0x3e21d65d	0.1580443
172	0x3dae0fa3	0.08499076
173	0x3c003383	0.007824781
174	0x3e4ff6ac	0.20308942
175	0xbefec181	-0.49757007
176	0xbe5b2296	-0.21399912
177	0xbed2e0b5	-0.41187063
178	0x3f934b62	1.150738
179	0x3f838a17	1.0276517
180	0x3f7cb27a	0.98709834
181	0xbd271d12	-0.040799208
182	0xbe217ce2	-0.15770295
183	0xbecd97a0	-0.40154743
184	0x3f99d9a3	1.2019542
185	0xbe1c50ae	-0.15265152
186	0x3fa0a1ac	1.2549338
187	0x3f6b2585	0.91854125
188	0x3f93b199	1.1538574
189	0x3e26cb2f	0.16288446
190	0xbe8bf0d6	-0.2733218
191	0xbe409735	-0.18807681
192	0x3e6943c1	0.22779752
193	0xbeb2fe7c	-0.3495978
194	0x3f234290	0.6377344
195	0x3e0ddea6	0.13854465
196	0x3e28bc97	0.16478191
197	0xbec2ae11	-0.38023427
198	0x3fa3e661	1.2804681
199	0x3e117011	0.14202906
200	0x3f813c18	1.0096464
201	0x3ee23d3e	0.4418735
202	0x3cd49b42	0.025952939
203	0xbeb9d0bc	-0.36292064
204	0x3ea1ae3a	0.31578237
205	0xbea32b74	-0.3186909
206	0x3f4114eb	0.75422543
207	0x3f80ce62	1.0062983
208	0x3fa128ab	1.2590536
209	0xbd4c33e5	-0.049854178
210	0x3f10d71f	0.5657825
211	0xbe82612d	-0.25464764
212	0x3f68d04c	0.90942836
213	0x3e53e994	0.20694572
214	0x3ea89742	0.329279
215	0xbf150106	-0.58204687
216	0x3f073ea0	0.52829933
217	0x3ecaecf9	0.3963392
218	0xbf1c8ecd	-0.61155397
219	0xbefacd91	-0.4898496
220	0x3eaef4ca	0.34171134
221	0xbf1261c8	-0.5718045
222	0x3dbced66	0.09224968
223	0x3eb0dc57	0.34543106
224	0x3f999900	1.1999817
225	0xbd232aad	-0.03983562
226	0x3e53e59b	0.20693056
227	0xbe991e6d	-0.29906026
228	0xbead4bc0	-0.33846855
229	0x3dd75a30	0.10515249
230	0x3e9fac3c	0.31186092
231	0x3c8d5900	0.017254353
232	0x3f06a344	0.52592874
233	0x3e98d853	0.29852542
234	0x3c64476b	0.013933043
235	0xbf741b6a	-0.9535433
236	0x3f969b40	1.1766129
237	0xbe6472d4	-0.22309428
238	0x3f4630c3	0.77418154
239	0x3f56c154	0.83888745
240	0xbee2c638	-0.44291854
241	0xbe0f663e	-0.14003846
242	0x3f1f31d5	0.6218541
243	0x3f4fafae	0.8112744
244	0x3f4c1827	0.79724354
245	0xbdca3391	-0.09873117
246	0x3e437dbf	0.19090937
247	0x3e4caeb9	0.19988526
248	0x3f316de1	0.69308287
249	0x3ebaaa51	0.36458066
250	0xbef7868e	-0.48344845
251	0xbecfba8d	-0.40572014
252	0x3f8436c0	1.0329208
253	0x3ed4f17f	0.41590497
254	0x3d2ddc8e	0.042446665
255	0xbf7a3239	-0.97732884

0.bias f4 [64]
0	0x3d90441d	0.070442416
1	0x3eb88669	0.36040047
2	0xbef77e7e	-0.48338693
3	0x3f309192	0.6897212
4	0xbda45775	-0.080244936
5	0xbef26147	-0.47339842
6	0x3f2928f4	0.66078115
7	0x3f327cdb	0.69721764
8	0x3f4b46d8	0.79404974
9	0x3e59c371	0.21265961
10	0x3c637cb9	0.013884717
11	0xbe151c98	-0.14561689
12	0xbd6ad2a2	-0.05732978
13	0x3e3c06b2	0.18361929
14	0xbed3fefc	-0.41405475
15	0xbe4a72dc	-0.19770378
16	0x3f3103aa	0.69146216
17	0x3d85df7a	0.065367654
18	0x3f2247d7	0.6339087
19	0x3f07a9c1	0.529934
20	0xbd69fba0	-0.057124734
21	0x3f497501	0.7869416
22	0x3ecd83b2	0.40139538
23	0x3f0ef7f4	0.55847096
24	0xbe6ca1ab	-0.23108546
25	0x3f0bc8fc	0.5460355
26	0xbe309390	-0.1724379
27	0xbe4b0182	-0.19824794
28	0xbda77145	-0.08175901
29	0xbe8e3c86	-0.2778055
30	0x3e40bd4f	0.18822215
31	0xbca3a80f	-0.019977598
32	0x3f3e0ec5	0.74241287
33	0x3ea075c5	0.3133985
34	0xbe0faa6c	-0.14029855
35	0xbd7bb998	-0.061456293
36	0x3ec33816	0.38128728
37	0x3f1cfe03	0.6132509
38	0x3ed4ac68	0.41537786
39	0x3d426fe1	0.047469977
40	0xbe786e08	-0.24260724
41	0x3ebbccb6	0.3667962
42	0xbe63c29c	-0.22242206
43	0xbe65b32f	-0.22431634
44	0x3f18f30e	0.5974587
45	0x3f2e2b72	0.6803504
46	0x3e93adef	0.28843638
47	0x3f3296d3	0.6976139
48	0x3e033331	0.12812497
49	0xbe49801c	-0.19677776
50	0x3d6b8d17	0.0575076
51	0xbe2227bb	-0.15835468
52	0x3f5619cf	0.8363313
53	0x3f11047b	0.5664746
54	0x3efada20	0.4899454
55	0x3e48b733	0.19601135
56	0x3f44eca3	0.7692358
57	0xbeba7ca0	-0.36423206
58	0xbed10bee	-0.40829414
59	0x3f4aaac1	0.791668
60	0x3e7ee815	0.2489322
61	0xbdde8a7f	-0.1086626
62	0x3e7054f5	0.23469909
63	0x3f333241	0.69998556

2.weight f4 [64, 64]
0	0x3d77a1a4	0.060456887
1	0x3d1c7aa4	0.038202897
2	0x3d452136	0.048127376
3	0xbda9efea	-0.08297713
4	0xbd45111d	-0.048112024
5	0xbd7d7a15	-0.061884005
6	0x3dca1c47	0.09868675
7	0xbdd9fc66	-0.10643844
8	0x3d36a10a	0.044587173
9	0xbc7cb7cd	-0.015424681
10	0x3db43a10	0.08800137
11	0xbc69f977	-0.014280668
12	0xbd8543f6	-0.06507103
13	0x3dd5bf16	0.104368374
14	0xbd6456d8	-0.055746883
15	0x3dd8a9b6	0.10579245
16	0x3b76196a	0.003755177
17	0xbdb6f380	-0.08933163
18	0xbdd8b433	-0.10581245
19	0x3d34e3d6	0.044162594
20	0xbdaa579a	-0.0831749
21	0x3cdc5d55	0.026899973
22	0x3dd9e4c2	0.10639335
23	0x3d299630	0.041402996
24	0x3dafd76b	0.085860096
25	0xbcc7eec6	-0.024405848
26	0x3d976cbc	0.07393786
27	0xbd06599d	-0.032800306
28	0x3d6dd9ff	0.058069225
29	0x3cffbf40	0.031219125
30	0x3dbb8426	0.09156065
31	0xb9b035ba	-0.00033609365
32	0x3c361ac7	0.011114783
33	0xbde2f620	-0.11082101
34	0xbcfde828	-0.03099449
35	0xbdbfa761	-0.09358097
36	0x3d550468	0.052006155
37	0xbd638a20	-0.05555165
38	0xbd2b3cbc	-0.041805968
39	0x3c5a6bcf	0.013331368
40	0xbd45588c	-0.048180148
41	0xbd1b08de	-0.037850253
42	0x3d8eb114	0.06967369
43	0x3d0ef42c	0.03490083
44	0xbce9616c	-0.028488837
45	0x3d56e909	0.052468333
46	0xbcd64818	-0.026157424
47	0x3dd38a51	0.10329116
48	0xbdeb3713	-0.11485114
49	0xbd501fe5	-0.050811667
50	0x3d0dfc36	0.034664355
51	0xbcdfcd42	-0.027319554
52	0xbc09185b	-0.008367623
53	0xbd5b3016	-0.053512655
54	0xbc2b03f7	-0.010437957
55	0xbd196dc5	-0.0374582
56	0x3d88c878	0.066788614
57	0xbcc9bd60	-0.024626434
58	0xbd935542	-0.07193996
59	0xbdebcbcc	-0.115134805
60	0xbd31d947	-0.043420102
61	0xbdc7a18a	-0.09747608
62	0xbde344c7	-0.110971026
63	0xbc069571	-0.008214341
64	0x3e52973d	0.20565505
65	0x3e1622ce	0.14661714
66	0xbf187d41	-0.5956612
67	0xbd9054fb	-0.07047459
68	0x3f064ca9	0.52460724
69	0x3e97f917	0.29682228
70	0x3f03aed5	0.5143865
71	0x3e22c7c0	0.15896511
72	0x3e70be37	0.23510061
73	0x3da7564a	0.08170755
74	0x3ddd2776	0.10798542
75	0xbc79a3f1	-0.015236841
76	0x3e888784	0.2666589
77	0x3e89d29a	0.2691849
78	0xbd0a675c	-0.033789977
79	0xbdabfbaa	-0.083976105
80	0x3e6edb64	0.23325878
81	0x3e95c475	0.29251447
82	0x3de43656	0.11143176
83	0x3ef5da4a	0.48018104
84	0x3ca795f8	0.020457253
85	0x3e92e59c	0.28690803
86	0x3ea0f21d	0.31434718
87	0x3e4df5f5	0.20113356
88	0x3ef04bdc	0.46932876
89	0x3e04dbcb	0.1297447
90	0xbdfe0d8a	-0.12404926
91	0xbf37b9da	-0.7176796
92	0x3e6434f1	0.2228582
93	0x3d9428e0	0.07234359
94	0x388e0034	6.7711255e-05
95	0x3e8ae799	0.2712982
96	0x3e1f6114	0.15564376
97	0xbdf4d134	-0.11953965
98	0x3cdb6728	0.026782587
99	0x3eb4ef62	0.35338885
100	0x3ed0eeb6	0.40807122
101	0x3e89059e	0.26762098
102	0x3f0f90fb	0.560806
103	0x3dddefa5	0.10836724
104	0x3c00abf0	0.007853493
105	0x3e052ccf	0.13005374
106	0x3daa297f	0.08308696
107	0x3d86e28e	0.065861806
108	0x3e4772e0	0.19477415
109	0x3e096b01	0.13419725
110	0x3de8533d	0.113440014
111	0x3eba9c3f	0.3644733
112	0x3c21944c	0.009862017
113	0xba5978ca	-0.0008295892
114	0x3e9350eb	0.28772673
115	0x3dcc5407	0.099769644
116	0x3e8de62b	0.27714667
117	0x3e31b854	0.17355472
118	0x3e8c72a2	0.27431208
119	0x3e1649c1	0.14676572
120	0x3ebf09da	0.37312204
121	0x3d8882d2	0.06665577
122	0x3e1a98d7	0.15097366
123	0x3e7d0ac8	0.24711144
124	0x3df36ac0	0.11885595
125	0x3d1a0084	0.037598148
126	0x3eb746ca	0.35796195
127	0x3eaccc71	0.33749726
128	0x3de22de4	0.11043909
129	0xbdfb3aac	-0.1226705
130	0xbdcc0908	-0.0996266
131	0xbd5217b4	-0.051292136
132	0x3d186784	0.037208095
133	0xbb1c9780	-0.0023894012
134	0xbc890c20	-0.016729414
135	0x3cdb1010	0.026741058
136	0xbd9f5832	-0.07780494
137	0xbdbb4dc8	-0.09145695
138	0x3ddebab4	0.108754545
139	0xbd8b21ba	-0.06793542
140	0xbd61622c	-0.055025265
141	0xbdd16174	-0.10223666
142	0x3b03eb80	0.0020129383
143	0x3cded918	0.027203128
144	0xbc60ca70	-0.01372014
145	0x3cd77ef8	0.02630566
146	0x3cc077e8	0.023494676
147	0x3d3b2df4	0.04569812
148	0xbdf011dc	-0.117221564
149	0xbcf0e450	-0.029405743
150	0xbdfe7f10	-0.12426579
151	0x3d84b8ca	0.06480558
152	0x3dde8a3a	0.108662084
153	0xbd63d970	-0.055627286
154	0x3dc16e60	0.094448805
155	0xbdb34e6c	-0.08755192
156	0x3ddd4d9c	0.108058184
157	0xbd39ab64	-0.045329466
158	0xbd2c0aa0	-0.04200232
159	0x3ddfb1ac	0.1092256
160	0xbb850500	-0.004059434
161	0x3dfb7148	0.12277466
162	0xbd9a6c6a	-0.075402096
163	0xbd0bca14	-0.034128264
164	0xbd86d4a2	-0.06583525
165	0xbd94036e	-0.07227217
166	0xbd88c6de	-0.06678556
167	0x3dc11114	0.094270855
168	0xbd08aca8	-0.033367783
169	0x3d259d8c	0.04043345
170	0xbddb9476	-0.10721676
171	0xbcfac830	-0.030613035
172	0xbd85fca8	-0.06542331
173	0x3dec19aa	0.115283325
174	0xbcd0c4a8	-0.025484398
175	0xbd9923d4	-0.07477537
176	0xbddc2f82	-0.10751249
177	0xbd1aa098	-0.03775081
178	0x3d9e42d4	0.0772759
179	0x3cc91c18	0.024549529
180	0xbd9bdfba	-0.07611032
181	0x3b10ac80	0.0022075474
182	0xbdd27e0c	-0.10277948
183	0xbdf12148	-0.11773926
184	0xbd35ede8	-0.04441634
185	0x3de5e4ba	0.11225267
186	0x3d97738e	0.07395087
187	0xbd5cf198	-0.05394134
188	0xbd6ad650	-0.05733329
189	0xbc93ed20	-0.018057406
190	0xbd177aa0	-0.03698218
191	0xbccc8648	-0.024966374
192	0x3d299978	0.041406125
193	0x3e1ad584	0.15120512
194	0xbef33790	-0.47503328
195	0xbebf5387	-0.37368414
196	0xbe6589da	-0.22415867
197	0xbf312b4a	-0.6920668
198	0x3ed4a30c	0.41530645
199	0xbec70c5d	-0.3887662
200	0x3e296ce8	0.1654545
201	0x3d13c7a5	0.036079068
202	0xbef6fd85	-0.48240295
203	0x3e337d16	0.17528185
204	0xbf09a43a	-0.53766215
205	0xbe90417c	-0.2817496
206	0x3dcc3dc0	0.099727154
207	0xbd9c3680	-0.076275826
208	0xbe505741	-0.20345785
209	0x3cd467f6	0.025928479
210	0xbe3a4965	-0.1819206
211	0x3cb019de	0.02149671
212	0xbcc823e8	-0.024431184
213	0x3d0822c7	0.03323629
214	0xbe2ee689	-0.1708013
215	0x3c573513	0.0131352125
216	0xbf36fab4	-0.7147629
217	0x3dadeb19	0.08492107
218	0xbc520870	-0.0128193945
219	0xbee9ad30	-0.45639944
220	0x3ddeeeff	0.10885429
221	0xbd56fb28	-0.052485615
222	0xbe6ede97	-0.23327099
223	0x3f13da9f	0.57755464
224	0x3daa4066	0.08313064
225	0xbd3e0105	-0.04638769
226	0x3c934bf0	0.017980546
227	0xbf009a86	-0.50235784
228	0xbe80f5f0	-0.25187635
229	0x3eb26ae1	0.34847167
230	0xbeb8d17d	-0.36097327
231	0x3c992657	0.01869504
232	0xbd3a6178	-0.04550311
233	0x3e864da4	0.2623111
234	0x3da1d36e	0.07901655
235	0xbd79c6ff	-0.060980793
236	0x3ce146c6	0.027499568
237	0xbd35358f	-0.04424053
238	0x3eb8d43f	0.3609943
239	0xbe6e199a	-0.23251954
240	0x3e0fa426	0.14027461
241	0x3dd68bf2	0.10475911
242	0xbed26a96	-0.41096944
243	0x3e05716f	0.13031553
244	0x3e955a03	0.29170236
245	0xbe321a1b	-0.17392771
246	0xbef8e186	-0.4860956
247	0x3db1c97c	0.08681008
248	0x3e60dbfd	0.21958919
249	0xbd18cb60	-0.03730333
250	0xbf1eb565	-0.61995536
251	0x3e94de9c	0.29076087
252	0x3e77c0dd	0.24194665
253	0xbde11d74	-0.10991946
254	0xbe9bde55	-0.30443063
255	0xbebd5cd4	-0.36984885

2.bias f4 [64]
0	0xbc1d81e2	-0.009613486
1	0x3eaf674a	0.3425849
2	0x3d99bf92	0.07507242
3	0x3efe44ed	0.4966196
4	0x3f186dc8	0.5954251
5	0x3c8a3898	0.01687269
6	0xbd5184ff	-0.051152226
7	0x3abc844f	0.0014382693
8	0xbdcb80e3	-0.099366926
9	0x3d7de018	0.06198129
10	0xbd8fd14c	-0.07022342
11	0x3ed7dfbb	0.4216288
12	0x3d397f7f	0.045287605
13	0x3eae0679	0.33989313
14	0xbdeba572	-0.115061656
15	0xbddde1af	-0.10834061
16	0xbe1b72cb	-0.15180509
17	0x3f11bb42	0.5692636
18	0x3d00ae48	0.031416208
19	0xbd873ebc	-0.066037625
20	0xbdb69d3f	-0.08916711
21	0x3deddf12	0.11614813
22	0x3ec633f5	0.38711515
23	0xbd81721f	-0.06320595
24	0x3e3ed87f	0.18637274
25	0x3ee2c3e6	0.44290084
26	0xbda9ae33	-0.08285179
27	0xbe341b6c	-0.17588586
28	0xbd262ee0	-0.040572047
29	0x3e989c38	0.29806685
30	0x3f257a47	0.64639705
31	0x3e98de96	0.2985732
32	0x3e9fc738	0.3120668
33	0x3d266efa	0.04063318
34	0x3f0010ea	0.5002581
35	0x3e605993	0.2190917
36	0xbd9a1c90	-0.07524979
37	0xbe0225e5	-0.12709768
38	0x3ed3b955	0.41352335
39	0x3e9fea80	0.31233597
40	0xbd8105ab	-0.06299909
41	0x3ec874bc	0.3915156
42	0xbdc252b8	-0.094884336
43	0xbd808791	-0.06275857
44	0x3e82505c	0.25451934
45	0x3e16e2ce	0.14734957
46	0x3f4beb02	0.7965547
47	0xbdc1675f	-0.094435446
48	0xbd7b73c4	-0.0613897
49	0x3c493922	0.012281688
50	0x3cb22ec8	0.021750823
51	0x3d25b97f	0.040460106
52	0xbdb28aee	-0.08717905
53	0x3f062853	0.5240528
54	0x3edd4f9c	0.432248
55	0xbd7a2570	-0.06107086
56	0x3ee38b0a	0.44442016
57	0x3e208df1	0.15679146
58	0x3ed21054	0.41028082
59	0xbd3dfa18	-0.046381086
60	0x3eb925b6	0.36161584
61	0x3dfa8462	0.12232281
62	0xbdfef64a	-0.1244932
63	0xbd076060	-0.033050895

4.weight f4 [2, 64]
0	0x3d8f6803	0.070022605
1	0x3d8c1369	0.0683964
2	0x3dcff274	0.10153666
3	0x3e382660	0.17983389
4	0x3dd1cabe	0.10243748
5	0xbd8e0c8c	-0.06935987
6	0x3dd32fef	0.10311877
7	0x3d9abedb	0.07555934
8	0xbd81bbea	-0.0633467
9	0x3d8c8270	0.068608165
10	0x3d6fe2c3	0.058565866
11	0x3bf77dd6	0.0075528426
12	0x3daf1763	0.085493825
13	0x3c5e5484	0.013569955
14	0xbdbd082c	-0.09230074
15	0xbdb2c241	-0.08728457
16	0xbd7c25dc	-0.061559543
17	0x3e5ceea0	0.21575403
18	0xbf3999e9	-0.72500473
19	0xbd8d2a3a	-0.0689282
20	0xbc963179	-0.018334137
21	0x3c09cbc0	0.008410394
22	0x3d847d0c	0.06469163
23	0x3c96189f	0.018322287
24	0x3efd75b2	0.49503857
25	0x3e334fda	0.1751093
26	0xbd8a951f	-0.06766724
27	0x3cbfa88e	0.023395803
28	0x3d8d0f86	0.068877265
29	0xbd4730aa	-0.048630394
30	0x3e1a6285	0.15076645
31	0x3c21f93b	0.009886081
32	0x3e5f29ab	0.21793239
33	0xbc8419ae	-0.016125526
34	0x3ed99e9a	0.42503816
35	0xbd786397	-0.06064185
36	0xbd87ad97	-0.066249065
37	0xbd68bb80	-0.05681944
38	0x3ca670f4	0.020317532
39	0x3f30042f	0.68756384
40	0xbdec88d8	-0.115495384
41	0x3f2c49bd	0.67300016
42	0xbd0d8928	-0.03455463
43	0x3d9d248b	0.07672986
44	0xbdd80f35	-0.105497755
45	0xbf0e1dc9	-0.555142
46	0x3e87e19d	0.26539317
47	0xbc5c6f40	-0.013454258
48	0xbeb86187	-0.36011907
49	0x3c743860	0.014906019
50	0x3df7b53e	0.12095116
51	0xbf20a54b	-0.6275222
52	0x3db423c0	0.08795881
53	0x3dbcb07a	0.09213348
54	0x3f110d60	0.56661034
55	0xbd2bb1ec	-0.041917726
56	0x3e3fde6e	0.18737194
57	0xbe13aa28	-0.14420378
58	0xbba7fb60	-0.005126402
59	0x3dc60594	0.09669033
60	0x3e406faa	0.18792596
61	0x3e89e603	0.26933298
62	0xbdcaa77e	-0.09895228
63	0xbde8ff62	-0.113768354
64	0xbd45d6d5	-0.048300583
65	0x3e841025	0.25793567
66	0x3d995ba6	0.07488184
67	0x3e6db508	0.23213589
68	0x3e378c0b	0.17924516
69	0xbd84e200	-0.064884186
70	0xbd236db1	-0.03989953
71	0xbd2fbfc3	-0.042907488
72	0xbca8119a	-0.020516206
73	0x3d9d5b8e	0.07683478
74	0xbaa5a6e8	-0.0012638243
75	0x3e7cf852	0.24704102
76	0xbda2cb5b	-0.07948943
77	0x3e73610b	0.23767488
78	0xbd4487e4	-0.047981158
79	0xbd8d0ab3	-0.06886806
80	0xbdcb83f8	-0.099372804
81	0x3e48f3f1	0.19624306
82	0xbf3b6d09	-0.7321325
83	0xbda9d5f6	-0.08292763
84	0xbda66104	-0.08123973
85	0xbd686128	-0.05673328
86	0x3dbe1b7a	0.092825845
87	0x3c5042e7	0.012711263
88	0x3f83b42f	1.0289363
89	0x3e836e85	0.25670257
90	0xbede47f2	-0.43414265
91	0xbdc5fbd6	-0.096671745
92	0x3be3ca3c	0.0069515985
93	0x3e1b76e5	0.15182073
94	0x3e454e01	0.19268037
95	0x3e432dca	0.19060436
96	0x3d0e5e64	0.034757987
97	0xbc407f0b	-0.011749039
98	0x3efa1e50	0.48851252
99	0x3e53e496	0.20692667
100	0x3d65052c	0.055913135
101	0xbd2e04c4	-0.042485014
102	0x3e6a203a	0.22863856
103	0x3f1e2b20	0.61784554
104	0xbd732c02	-0.05936814
105	0x3f1ae394	0.60503507
106	0xbd98e60a	-0.074657515
107	0xbd72bca1	-0.05926192
108	0x3e2543e6	0.16139182
109	0xbf04e96b	-0.5191867
110	0x3e4618b0	0.19345355
111	0x3c8a8476	0.016908865
112	0xbe81345e	-0.25235265
113	0x3cd265c6	0.025683295
114	0xbb580340	-0.0032960922
115	0xbe8a8bbf	-0.27059743
116	0xbd3e94de	-0.04652869
117	0x3e714b7e	0.23563954
118	0x3f1d11b0	0.61355114
119	0xbdf784c2	-0.120858684
120	0x3e406cc3	0.1879149
121	0x3e0fd829	0.14047302
122	0x3e2898e1	0.16464569
123	0xbd3705e4	-0.044683352
124	0x3e82b57d	0.2552909
125	0x3eb9db91	0.36300328
126	0x3d97bc1a	0.074089244
127	0xbce5a650	-0.028033406

4.bias f4 [2]
0	0x3f73f754	0.9529927
1	0x3eb3298d	0.34992638

0.weight f4 [64, 4]
0	0x3f0c95b1	0.5491591
1	0xbed6d638	-0.4196031
2	0x3f5bdedc	0.8588693
3	0x3f1318b7	0.57459587
4	0xbe914834	-0.283754
5	0xbe99ab8f	-0.300137
6	0x3ed19b79	0.4093893
7	0x3f0d14aa	0.55109656
8	0xbe9ad249	-0.3023856
9	0x3f0a1c38	0.5394931
10	0x3f2e73ee	0.68145645
11	0x3f949784	1.1608739
12	0x3da85275	0.082188524
13	0x3f2b4fe0	0.66918755
14	0x3eb342d3	0.3501192
15	0x3dee89c4	0.116473705
16	0x3f8d72a5	1.1050612
17	0x3eb0992a	0.34491855
18	0xbdc36527	-0.09540778
19	0xbf445a21	-0.76700026
20	0x3f5452a8	0.82938623
21	0x3f00183e	0.5003699
22	0xbdbd4274	-0.092411906
23	0xbf938297	-1.1524228
24	0x3e980d1d	0.29697505
25	0xbbe58013	-0.007003793
26	0x3fd98c45	1.6995932
27	0x3f1ff05d	0.6247614
28	0x3e489a8d	0.19590206
29	0x3f03df17	0.51512283
30	0xbd63a965	-0.05558147
31	0xbf27de03	-0.6557314
32	0x3f38ff5c	0.7226465
33	0xbec0cc41	-0.37655833
34	0x3edf3a2f	0.43599078
35	0x3ec6362c	0.38713205
36	0x3e3d7f93	0.18505697
37	0xbec1e18f	-0.378674
38	0x3eeddac2	0.4645596
39	0x3c9d0556	0.019167583
40	0x3f155043	0.58325595
41	0x3efc31c5	0.4925672
42	0x3b736ec4	0.003714488
43	0xbecef7d6	-0.4042346
44	0x3d037800	0.032096863
45	0xbe9629ec	-0.2932886
46	0x3fa82bb4	1.3138337
47	0xbe67eb20	-0.22648287
48	0x3f64000f	0.8906259
49	0x3ef7ff5e	0.48437017
50	0x3d062c9d	0.03275739
51	0xbeb7d780	-0.359066
52	0x3f3d74c3	0.7400629
53	0xbc87ec00	-0.016592026
54	0x3df09058	0.117462814
55	0xbf5c27c2	-0.85998166
56	0x3bc91a80	0.0061371922
57	0x3e877aa8	0.26460767
58	0xbdaa1408	-0.08304602
59	0xbce0b340	-0.027429223
60	0xbef8b4f2	-0.4857555
61	0x3d6c2650	0.057653725
62	0x3e9c0092	0.30469185
63	0xbdd94440	-0.10608721
64	0x3f8aa037	1.0830144
65	0x3e94ec78	0.2908666
66	0x3da50420	0.080574274
67	0x39f2177a	0.00046175328
68	0x3f1d8d75	0.6154397
69	0x3d591c6b	0.053005617
70	0xbf172458	-0.5903983
71	0x3e7bb38c	0.2458021
72	0x3f63d94e	0.89003456
73	0x3c8ffea6	0.01757748
74	0xbd8b9d31	-0.06817091
75	0xbc66904c	-0.014072489
76	0x3f866c95	1.0501887
77	0x3d5ba9d3	0.053628754
78	0xbf40baae	-0.7528485
79	0xbea77f7a	-0.32714444
80	0xbe99c7de	-0.300353
81	0x3d922b08	0.07137114
82	0xbed6f4c0	-0.41983604
83	0xbece9f44	-0.40355885
84	0x3f8aa82d	1.0832573
85	0xbeaf29c1	-0.34211543
86	0x3f836a2c	1.0266776
87	0xbd4134b1	-0.04716939
88	0x3f9aae97	1.208453
89	0x3ea69d0e	0.32541698
90	0xbe83ec8f	-0.25766417
91	0xbf6304bd	-0.88679105
92	0x3f9aa31f	1.2081031
93	0xbe999942	-0.2999974
94	0xbda8c0ea	-0.082399204
95	0x3e326f7f	0.17425345
96	0xbc8cf81e	-0.017208155
97	0x3f23f851	0.64050776
98	0xbe853f25	-0.26024738
99	0xbf8a6634	-1.081244
100	0x3ee032c9	0.43788746
101	0xbedad04f	-0.42737052
102	0x3e43bcc3	0.19114976
103	0xbdb40e93	-0.08791842
104	0xbeb5a8ee	-0.35480446
105	0x3eb43fc2	0.35204893
106	0xbead4b3a	-0.33846456
107	0xbedd3f10	-0.43212175
108	0xbf18878c	-0.5958183
109	0x3f07072f	0.52745336
110	0x3f11d322	0.5696279
111	0x3f555ed8	0.83347845
112	0xbe067962	-0.13132241
113	0xbe4c1722	-0.199307
114	0x3f916926	1.1360214
115	0xbd5c6974	-0.053811505
116	0xbeea88b8	-0.45807433
117	0x3eb0dd4e	0.34543842
118	0xbe9321c8	-0.2873671
119	0x3ea8c682	0.3296395
120	0x3d93a6cc	0.07209548
121	0x3eb56902	0.35431677
122	0x3ef234e7	0.47305986
123	0xbeb4b755	-0.3529612
124	0xbeba53df	-0.36392114
125	0x3d144df1	0.036207143
126	0x3f0e5880	0.5560379
127	0x3f8b4659	1.0880843
128	0x3f9ba3da	1.2159379
129	0xbedd23f0	-0.4319148
130	0x3f5221f6	0.8208307
131	0x3dcd1438	0.10013622
132	0xbf906b6b	-1.1282781
133	0x3e613cd5	0.21995862
134	0xbe39b5cf	-0.1813576
135	0x3f5be5a5	0.85897285
136	0xbeca96e4	-0.39568245
137	0x3ecd43d4	0.4009081
138	0x3d0603f0	0.0327186
139	0xbedd7196	-0.43250722
140	0x3f8bbbbe	1.0916669
141	0x3ea894bf	0.32925984
142	0xbe04f25e	-0.1298308
143	0xbf656d5d	-0.8962
144	0x3ee634bd	0.4496211
145	0x3d99e203	0.075138114
146	0xbf26a1e7	-0.65090793
147	0xbee619af	-0.4494147
148	0x3f72f885	0.9491046
149	0xbe55286a	-0.20816198
150	0x3fc71583	1.555344
151	0x3f98ab9e	1.1927373
152	0x3f162c4d	0.5866135
153	0x3e3aef90	0.18255448
154	0xbefa6488	-0.48904824
155	0xbf08ffbd	-0.53515226
156	0x3e126420	0.14296007
157	0xbeb7c948	-0.35895753
158	0x3f329565	0.6975921
159	0x3f20c22c	0.6279628
160	0xbe3907d8	-0.18069398
161	0x3eabbd04	0.33542645
162	0xbecfd5c6	-0.40592784
163	0xbe97fb3a	-0.29683858
164	0xbf210305	-0.6289523
165	0xbe3eb21b	-0.1862263
166	0x3f613c4d	0.87982637
167	0x3f574343	0.8408701
168	0x3ea53837	0.3226945
169	0xbea3d977	-0.3200185
170	0x3fa9e0b3	1.3271698
171	0x3e21d65d	0.1580443
172	0x3dae0fa3	0.08499076
173	0x3c003383	0.007824781
174	0x3e4ff6ac	0.20308942
175	0xbefec181	-0.49757007
176	0xbe5b2296	-0.21399912
177	0xbed2e0b5	-0.41187063
178	0x3f934b62	1.150738
179	0x3f838a17	1.0276517
180	0x3f7cb27a	0.98709834
181	0xbd271d12	-0.040799208
182	0xbe217ce2	-0.15770295
183	0xbecd97a0	-0.40154743
184	0x3f99d9a3	1.2019542
185	0xbe1c50ae	-0.15265152
186	0x3fa0a1ac	1.2549338
187	0x3f6b2585	0.91854125
188	0x3f93b199	1.1538574
189	0x3e26cb2f	0.16288446
190	0xbe8bf0d6	-0.2733218
191	0xbe409735	-0.18807681
192	0x3e6943c1	0.22779752
193	0xbeb2fe7c	-0.3495978
194	0x3f234290	0.6377344
195	0x3e0ddea6	0.13854465
196	0x3e28bc97	0.16478191
197	0xbec2ae11	-0.38023427
198	0x3fa3e661	1.2804681
199	0x3e117011	0.14202906
200	0x3f813c18	1.0096464
201	0x3ee23d3e	0.4418735
202	0x3cd49b42	0.025952939
203	0xbeb9d0bc	-0.36292064
204	0x3ea1ae3a	0.31578237
205	0xbea32b74	-0.3186909
206	0x3f4114eb	0.75422543
207	0x3f80ce62	1.0062983
208	0x3fa128ab	1.2590536
209	0xbd4c33e5	-0.049854178
210	0x3f10d71f	0.5657825
211	0xbe82612d	-0.25464764
212	0x3f68d04c	0.90942836
213	0x3e53e994	0.20694572
214	0x3ea89742	0.329279
215	0xbf150106	-0.58204687
216	0x3f073ea0	0.52829933
217	0x3ecaecf9	0.3963392
218	0xbf1c8ecd	-0.61155397
219	0xbefacd91	-0.4898496
220	0x3eaef4ca	0.34171134
221	0xbf1261c8	-0.5718045
222	0x3dbced66	0.09224968
223	0x3eb0dc57	0.34543106
224	0x3f999900	1.1999817
225	0xbd232aad	-0.03983562
226	0x3e53e59b	0.20693056
227	0xbe991e6d	-0.29906026
228	0xbead4bc0	-0.33846855
229	0x3dd75a30	0.10515249
230	0x3e9fac3c	0.31186092
231	0x3c8d5900	0.017254353
232	0x3f06a344	0.52592874
233	0x3e98d853	0.29852542
234	0x3c64476b	0.013933043
235	0xbf741b6a	-0.9535433
236	0x3f969b40	1.1766129
237	0xbe6472d4	-0.22309428
238	0x3f4630c3	0.77418154
239	0x3f56c154	0.83888745
240	0xbee2c638	-0.44291854
241	0xbe0f663e	-0.14003846
242	0x3f1f31d5	0.6218541
243	0x3f4fafae	0.8112744
244	0x3f4c1827	0.79724354
245	0xbdca3391	-0.09873117
246	0x3e437dbf	0.19090937
247	0x3e4caeb9	0.19988526
248	0x3f316de1	0.69308287
249	0x3ebaaa51	0.36458066
250	0xbef7868e	-0.48344845
251	0xbecfba8d	-0.40572014
252	0x3f8436c0	1.0329208
253	0x3ed4f17f	0.41590497
254	0x3d2ddc8e	0.042446665
255	0xbf7a3239	-0.97732884

0.bias f4 [64]
0	0x3d90441d	0.070442416
1	0x3eb88669	0.36040047
2	0xbef77e7e	-0.48338693
3	0x3f309192	0.6897212
4	0xbda45775	-0.080244936
5	0xbef26147	-0.47339842
6	0x3f2928f4	0.66078115
7	0x3f327cdb	0.69721764
8	0x3f4b46d8	0.79404974
9	0x3e59c371	0.21265961
10	0x3c637cb9	0.013884717
11	0xbe151c98	-0.14561689
12	0xbd6ad2a2	-0.05732978
13	0x3e3c06b2	0.18361929
14	0xbed3fefc	-0.41405475
15	0xbe4a72dc	-0.19770378
16	0x3f3103aa	0.69146216
17	0x3d85df7a	0.065367654
18	0x3f2247d7	0.6339087
19	0x3f07a9c1	0.529934
20	0xbd69fba0	-0.057124734
21	0x3f497501	0.7869416
22	0x3ecd83b2	0.40139538
23	0x3f0ef7f4	0.55847096
24	0xbe6ca1ab	-0.23108546
25	0x3f0bc8fc	0.5460355
26	0xbe309390	-0.1724379
27	0xbe4b0182	-0.19824794
28	0xbda77145	-0.08175901
29	0xbe8e3c86	-0.2778055
30	0x3e40bd4f	0.18822215
31	0xbca3a80f	-0.019977598
32	0x3f3e0ec5	0.74241287
33	0x3ea075c5	0.3133985
34	0xbe0faa6c	-0.14029855
35	0xbd7bb998	-0.061456293
36	0x3ec33816	0.38128728
37	0x3f1cfe03	0.6132509
38	0x3ed4ac68	0.41537786
39	0x3d426fe1	0.047469977
40	0xbe786e08	-0.24260724
41	0x3ebbccb6	0.3667962
42	0xbe63c29c	-0.22242206
43	0xbe65b32f	-0.22431634
44	0x3f18f30e	0.5974587
45	0x3f2e2b72	0.6803504
46	0x3e93adef	0.28843638
47	0x3f3296d3	0.6976139
48	0x3e033331	0.12812497
49	0xbe49801c	-0.19677776
50	0x3d6b8d17	0.0575076
51	0xbe2227bb	-0.15835468
52	0x3f5619cf	0.8363313
53	0x3f11047b	0.5664746
54	0x3efada20	0.4899454
55	0x3e48b733	0.19601135
56	0x3f44eca3	0.7692358
57	0xbeba7ca0	-0.36423206
58	0xbed10bee	-0.40829414
59	0x3f4aaac1	0.791668
60	0x3e7ee815	0.2489322
61	0xbdde8a7f	-0.1086626
62	0x3e7054f5	0.23469909
63	0x3f333241	0.69998556

2.weight f4 [64, 64]
0	0x3d77a1a4	0.060456887
1	0x3d1c7aa4	0.038202897
2	0x3d452136	0.048127376
3	0xbda9efea	-0.08297713
4	0xbd45111d	-0.048112024
5	0xbd7d7a15	-0.061884005
6	0x3dca1c47	0.09868675
7	0xbdd9fc66	-0.10643844
8	0x3d36a10a	0.044587173
9	0xbc7cb7cd	-0.015424681
10	0x3db43a10	0.08800137
11	0xbc69f977	-0.014280668
12	0xbd8543f6	-0.06507103
13	0x3dd5bf16	0.104368374
14	0xbd6456d8	-0.055746883
15	0x3dd8a9b6	0.10579245
16	0x3b76196a	0.003755177
17	0xbdb6f380	-0.08933163
18	0xbdd8b433	-0.10581245
19	0x3d34e3d6	0.044162594
20	0xbdaa579a	-0.0831749
21	0x3cdc5d55	0.026899973
22	0x3dd9e4c2	0.10639335
23	0x3d299630	0.041402996
24	0x3dafd76b	0.085860096
25	0xbcc7eec6	-0.024405848
26	0x3d976cbc	0.07393786
27	0xbd06599d	-0.032800306
28	0x3d6dd9ff	0.058069225
29	0x3cffbf40	0.031219125
30	0x3dbb8426	0.09156065
31	0xb9b035ba	-0.00033609365
32	0x3c361ac7	0.011114783
33	0xbde2f620	-0.11082101
34	0xbcfde828	-0.03099449
35	0xbdbfa761	-0.09358097
36	0x3d550468	0.052006155
37	0xbd638a20	-0.05555165
38	0xbd2b3cbc	-0.041805968
39	0x3c5a6bcf	0.013331368
40	0xbd45588c	-0.048180148
41	0xbd1b08de	-0.037850253
42	0x3d8eb114	0.06967369
43	0x3d0ef42c	0.03490083
44	0xbce9616c	-0.028488837
45	0x3d56e909	0.052468333
46	0xbcd64818	-0.026157424
47	0x3dd38a51	0.10329116
48	0xbdeb3713	-0.11485114
49	0xbd501fe5	-0.050811667
50	0x3d0dfc36	0.034664355
51	0xbcdfcd42	-0.027319554
52	0xbc09185b	-0.008367623
53	0xbd5b3016	-0.053512655
54	0xbc2b03f7	-0.010437957
55	0xbd196dc5	-0.0374582
56	0x3d88c878	0.066788614
57	0xbcc9bd60	-0.024626434
58	0xbd935542	-0.07193996
59	0xbdebcbcc	-0.115134805
60	0xbd31d947	-0.043420102
61	0xbdc7a18a	-0.09747608
62	0xbde344c7	-0.110971026
63	0xbc069571	-0.008214341
64	0x3e52973d	0.20565505
65	0x3e1622ce	0.14661714
66	0xbf187d41	-0.5956612
67	0xbd9054fb	-0.07047459
68	0x3f064ca9	0.52460724
69	0x3e97f917	0.29682228
70	0x3f03aed5	0.5143865
71	0x3e22c7c0	0.15896511
72	0x3e70be37	0.23510061
73	0x3da7564a	0.08170755
74	0x3ddd2776	0.10798542
75	0xbc79a3f1	-0.015236841
76	0x3e888784	0.2666589
77	0x3e89d29a	0.2691849
78	0xbd0a675c	-0.033789977
79	0xbdabfbaa	-0.083976105
80	0x3e6edb64	0.23325878
81	0x3e95c475	0.29251447
82	0x3de43656	0.11143176
83	0x3ef5da4a	0.48018104
84	0x3ca795f8	0.020457253
85	0x3e92e59c	0.28690803
86	0x3ea0f21d	0.31434718
87	0x3e4df5f5	0.20113356
88	0x3ef04bdc	0.46932876
89	0x3e04dbcb	0.1297447
90	0xbdfe0d8a	-0.12404926
91	0xbf37b9da	-0.7176796
92	0x3e6434f1	0.2228582
93	0x3d9428e0	0.07234359
94	0x388e0034	6.7711255e-05
95	0x3e8ae799	0.2712982
96	0x3e1f6114	0.15564376
97	0xbdf4d134	-0.11953965
98	0x3cdb6728	0.026782587
99	0x3eb4ef62	0.35338885
100	0x3ed0eeb6	0.40807122
101	0x3e89059e	0.26762098
102	0x3f0f90fb	0.560806
103	0x3dddefa5	0.10836724
104	0x3c00abf0	0.007853493
105	0x3e052ccf	0.13005374
106	0x3daa297f	0.08308696
107	0x3d86e28e	0.065861806
108	0x3e4772e0	0.19477415
109	0x3e096b01	0.13419725
110	0x3de8533d	0.113440014
111	0x3eba9c3f	0.3644733
112	0x3c21944c	0.009862017
113	0xba5978ca	-0.0008295892
114	0x3e9350eb	0.28772673
115	0x3dcc5407	0.099769644
116	0x3e8de62b	0.27714667
117	0x3e31b854	0.17355472
118	0x3e8c72a2	0.27431208
119	0x3e1649c1	0.14676572
120	0x3ebf09da	0.37312204
121	0x3d8882d2	0.06665577
122	0x3e1a98d7	0.15097366
123	0x3e7d0ac8	0.24711144
124	0x3df36ac0	0.11885595
125	0x3d1a0084	0.037598148
126	0x3eb746ca	0.35796195
127	0x3eaccc71	0.33749726
128	0x3de22de4	0.11043909
129	0xbdfb3aac	-0.1226705
130	0xbdcc0908	-0.0996266
131	0xbd5217b4	-0.051292136
132	0x3d186784	0.037208095
133	0xbb1c9780	-0.0023894012
134	0xbc890c20	-0.016729414
135	0x3cdb1010	0.026741058
136	0xbd9f5832	-0.07780494
137	0xbdbb4dc8	-0.09145695
138	0x3ddebab4	0.108754545
139	0xbd8b21ba	-0.06793542
140	0xbd61622c	-0.055025265
141	0xbdd16174	-0.10223666
142	0x3b03eb80	0.0020129383
143	0x3cded918	0.027203128
144	0xbc60ca70	-0.01372014
145	0x3cd77ef8	0.02630566
146	0x3cc077e8	0.023494676
147	0x3d3b2df4	0.04569812
148	0xbdf011dc	-0.117221564
149	0xbcf0e450	-0.029405743
150	0xbdfe7f10	-0.12426579
151	0x3d84b8ca	0.06480558
152	0x3dde8a3a	0.108662084
153	0xbd63d970	-0.055627286
154	0x3dc16e60	0.094448805
155	0xbdb34e6c	-0.08755192
156	0x3ddd4d9c	0.108058184
157	0xbd39ab64	-0.045329466
158	0xbd2c0aa0	-0.04200232
159	0x3ddfb1ac	0.1092256
160	0xbb850500	-0.004059434
161	0x3dfb7148	0.12277466
162	0xbd9a6c6a	-0.075402096
163	0xbd0bca14	-0.034128264
164	0xbd86d4a2	-0.06583525
165	0xbd94036e	-0.07227217
166	0xbd88c6de	-0.06678556
167	0x3dc11114	0.094270855
168	0xbd08aca8	-0.033367783
169	0x3d259d8c	0.04043345
170	0xbddb9476	-0.10721676
171	0xbcfac830	-0.030613035
172	0xbd85fca8	-0.06542331
173	0x3dec19aa	0.115283325
174	0xbcd0c4a8	-0.025484398
175	0xbd9923d4	-0.07477537
176	0xbddc2f82	-0.10751249
177	0xbd1aa098	-0.03775081
178	0x3d9e42d4	0.0772759
179	0x3cc91c18	0.024549529
180	0xbd9bdfba	-0.07611032
181	0x3b10ac80	0.0022075474
182	0xbdd27e0c	-0.10277948
183	0xbdf12148	-0.11773926
184	0xbd35ede8	-0.04441634
185	0x3de5e4ba	0.11225267
186	0x3d97738e	0.07395087
187	0xbd5cf198	-0.05394134
188	0xbd6ad650	-0.05733329
189	0xbc93ed20	-0.018057406
190	0xbd177aa0	-0.03698218
191	0xbccc8648	-0.024966374
192	0x3d299978	0.041406125
193	0x3e1ad584	0.15120512
194	0xbef33790	-0.47503328
195	0xbebf5387	-0.37368414
196	0xbe6589da	-0.22415867
197	0xbf312b4a	-0.6920668
198	0x3ed4a30c	0.41530645
199	0xbec70c5d	-0.3887662
200	0x3e296ce8	0.1654545
201	0x3d13c7a5	0.036079068
202	0xbef6fd85	-0.48240295
203	0x3e337d16	0.17528185
204	0xbf09a43a	-0.53766215
205	0xbe90417c	-0.2817496
206	0x3dcc3dc0	0.099727154
207	0xbd9c3680	-0.076275826
208	0xbe505741	-0.20345785
209	0x3cd467f6	0.025928479
210	0xbe3a4965	-0.1819206
211	0x3cb019de	0.02149671
212	0xbcc823e8	-0.024431184
213	0x3d0822c7	0.03323629
214	0xbe2ee689	-0.1708013
215	0x3c573513	0.0131352125
216	0xbf36fab4	-0.7147629
217	0x3dadeb19	0.08492107
218	0xbc520870	-0.0128193945
219	0xbee9ad30	-0.45639944
220	0x3ddeeeff	0.10885429
221	0xbd56fb28	-0.052485615
222	0xbe6ede97	-0.23327099
223	0x3f13da9f	0.57755464
224	0x3daa4066	0.08313064
225	0xbd3e0105	-0.04638769
226	0x3c934bf0	0.017980546
227	0xbf009a86	-0.50235784
228	0xbe80f5f0	-0.25187635
229	0x3eb26ae1	0.34847167
230	0xbeb8d17d	-0.36097327
231	0x3c992657	0.01869504
232	0xbd3a6178	-0.04550311
233	0x3e864da4	0.2623111
234	0x3da1d36e	0.07901655
235	0xbd79c6ff	-0.060980793
236	0x3ce146c6	0.027499568
237	0xbd35358f	-0.04424053
238	0x3eb8d43f	0.3609943
239	0xbe6e199a	-0.23251954
240	0x3e0fa426	0.14027461
241	0x3dd68bf2	0.10475911
242	0xbed26a96	-0.41096944
243	0x3e05716f	0.13031553
244	0x3e955a03	0.29170236
245	0xbe321a1b	-0.17392771
246	0xbef8e186	-0.4860956
247	0x3db1c97c	0.08681008
248	0x3e60dbfd	0.21958919
249	0xbd18cb60	-0.03730333
250	0xbf1eb565	-0.61995536
251	0x3e94de9c	0.29076087
252	0x3e77c0dd	0.24194665
253	0xbde11d74	-0.10991946
254	0xbe9bde55	-0.30443063
255	0xbebd5cd4	-0.36984885

2.bias f4 [64]
0	0xbc1d81e2	-0.009613486
1	0x3eaf674a	0.3425849
2	0x3d99bf92	0.07507242
3	0x3efe44ed	0.4966196
4	0x3f186dc8	0.5954251
5	0x3c8a3898	0.01687269
6	0xbd5184ff	-0.051152226
7	0x3abc844f	0.0014382693
8	0xbdcb80e3	-0.099366926
9	0x3d7de018	0.06198129
10	0xbd8fd14c	-0.07022342
11	0x3ed7dfbb	0.4216288
12	0x3d397f7f	0.045287605
13	0x3eae0679	0.33989313
14	0xbdeba572	-0.115061656
15	0xbddde1af	-0.10834061
16	0xbe1b72cb	-0.15180509
17	0x3f11bb42	0.5692636
18	0x3d00ae48	0.031416208
19	0xbd873ebc	-0.066037625
20	0xbdb69d3f	-0.08916711
21	0x3deddf12	0.11614813
22	0x3ec633f5	0.38711515
23	0xbd81721f	-0.06320595
24	0x3e3ed87f	0.18637274
25	0x3ee2c3e6	0.44290084
26	0xbda9ae33	-0.08285179
27	0xbe341b6c	-0.17588586
28	0xbd262ee0	-0.040572047
29	0x3e989c38	0.29806685
30	0x3f257a47	0.64639705
31	0x3e98de96	0.2985732
32	0x3e9fc738	0.3120668
33	0x3d266efa	0.04063318
34	0x3f0010ea	0.5002581
35	0x3e605993	0.2190917
36	0xbd9a1c90	-0.07524979
37	0xbe0225e5	-0.12709768
38	0x3ed3b955	0.41352335
39	0x3e9fea80	0.31233597
40	0xbd8105ab	-0.06299909
41	0x3ec874bc	0.3915156
42	0xbdc252b8	-0.094884336
43	0xbd808791	-0.06275857
44	0x3e82505c	0.25451934
45	0x3e16e2ce	0.14734957
46	0x3f4beb02	0.7965547
47	0xbdc1675f	-0.094435446
48	0xbd7b73c4	-0.0613897
49	0x3c493922	0.012281688
50	0x3cb22ec8	0.021750823
51	0x3d25b97f	0.040460106
52	0xbdb28aee	-0.08717905
53	0x3f062853	0.5240528
54	0x3edd4f9c	0.432248
55	0xbd7a2570	-0.06107086
56	0x3ee38b0a	0.44442016
57	0x3e208df1	0.15679146
58	0x3ed21054	0.41028082
59	0xbd3dfa18	-0.046381086
60	0x3eb925b6	0.36161584
61	0x3dfa8462	0.12232281
62	0xbdfef64a	-0.1244932
63	0xbd076060	-0.033050895

4.weight f4 [2, 64]
0	0x3d8f6803	0.070022605
1	0x3d8c1369	0.0683964
2	0x3dcff274	0.10153666
3	0x3e382660	0.17983389
4	0x3dd1cabe	0.10243748
5	0xbd8e0c8c	-0.06935987
6	0x3dd32fef	0.10311877
7	0x3d9abedb	0.07555934
8	0xbd81bbea	-0.0633467
9	0x3d8c8270	0.068608165
10	0x3d6fe2c3	0.058565866
11	0x3bf77dd6	0.0075528426
12	0x3daf1763	0.085493825
13	0x3c5e5484	0.013569955
14	0xbdbd082c	-0.09230074
15	0xbdb2c241	-0.08728457
16	0xbd7c25dc	-0.061559543
17	0x3e5ceea0	0.21575403
18	0xbf3999e9	-0.72500473
19	0xbd8d2a3a	-0.0689282
20	0xbc963179	-0.018334137
21	0x3c09cbc0	0.008410394
22	0x3d847d0c	0.06469163
23	0x3c96189f	0.018322287
24	0x3efd75b2	0.49503857
25	0x3e334fda	0.1751093
26	0xbd8a951f	-0.06766724
27	0x3cbfa88e	0.023395803
28	0x3d8d0f86	0.068877265
29	0xbd4730aa	-0.048630394
30	0x3e1a6285	0.15076645
31	0x3c21f93b	0.009886081
32	0x3e5f29ab	0.21793239
33	0xbc8419ae	-0.016125526
34	0x3ed99e9a	0.42503816
35	0xbd786397	-0.06064185
36	0xbd87ad97	-0.066249065
37	0xbd68bb80	-0.05681944
38	0x3ca670f4	0.020317532
39	0x3f30042f	0.68756384
40	0xbdec88d8	-0.115495384
41	0x3f2c49bd	0.67300016
42	0xbd0d8928	-0.03455463
43	0x3d9d248b	0.07672986
44	0xbdd80f35	-0.105497755
45	0xbf0e1dc9	-0.555142
46	0x3e87e19d	0.26539317
47	0xbc5c6f40	-0.013454258
48	0xbeb86187	-0.36011907
49	0x3c743860	0.014906019
50	0x3df7b53e	0.12095116
51	0xbf20a54b	-0.6275222
52	0x3db423c0	0.08795881
53	0x3dbcb07a	0.09213348
54	0x3f110d60	0.56661034
55	0xbd2bb1ec	-0.041917726
56	0x3e3fde6e	0.18737194
57	0xbe13aa28	-0.14420378
58	0xbba7fb60	-0.005126402
59	0x3dc60594	0.09669033
60	0x3e406faa	0.18792596
61	0x3e89e603	0.26933298
62	0xbdcaa77e	-0.09895228
63	0xbde8ff62	-0.113768354
64	0xbd45d6d5	-0.048300583
65	0x3e841025	0.25793567
66	0x3d995ba6	0.07488184
67	0x3e6db508	0.23213589
68	0x3e378c0b	0.17924516
69	0xbd84e200	-0.064884186
70	0xbd236db1	-0.03989953
71	0xbd2fbfc3	-0.042907488
72	0xbca8119a	-0.020516206
73	0x3d9d5b8e	0.07683478
74	0xbaa5a6e8	-0.0012638243
75	0x3e7cf852	0.24704102
76	0xbda2cb5b	-0.07948943
77	0x3e73610b	0.23767488
78	0xbd4487e4	-0.047981158
79	0xbd8d0ab3	-0.06886806
80	0xbdcb83f8	-0.099372804
81	0x3e48f3f1	0.19624306
82	0xbf3b6d09	-0.7321325
83	0xbda9d5f6	-0.08292763
84	0xbda66104	-0.08123973
85	0xbd686128	-0.05673328
86	0x3dbe1b7a	0.092825845
87	0x3c5042e7	0.012711263
88	0x3f83b42f	1.0289363
89	0x3e836e85	0.25670257
90	0xbede47f2	-0.43414265
91	0xbdc5fbd6	-0.096671745
92	0x3be3ca3c	0.0069515985
93	0x3e1b76e5	0.15182073
94	0x3e454e01	0.19268037
95	0x3e432dca	0.19060436
96	0x3d0e5e64	0.034757987
97	0xbc407f0b	-0.011749039
98	0x3efa1e50	0.48851252
99	0x3e53e496	0.20692667
100	0x3d65052c	0.055913135
101	0xbd2e04c4	-0.042485014
102	0x3e6a203a	0.22863856
103	0x3f1e2b20	0.61784554
104	0xbd732c02	-0.05936814
105	0x3f1ae394	0.60503507
106	0xbd98e60a	-0.074657515
107	0xbd72bca1	-0.05926192
108	0x3e2543e6	0.16139182
109	0xbf04e96b	-0.5191867
110	0x3e4618b0	0.19345355
111	0x3c8a8476	0.016908865
112	0xbe81345e	-0.25235265
113	0x3cd265c6	0.025683295
114	0xbb580340	-0.0032960922
115	0xbe8a8bbf	-0.27059743
116	0xbd3e94de	-0.04652869
117	0x3e714b7e	0.23563954
118	0x3f1d11b0	0.61355114
119	0xbdf784c2	-0.120858684
120	0x3e406cc3	0.1879149
121	0x3e0fd829	0.14047302
122	0x3e2898e1	0.16464569
123	0xbd3705e4	-0.044683352
124	0x3e82b57d	0.2552909
125	0x3eb9db91	0.36300328
126	0x3d97bc1a	0.074089244
127	0xbce5a650	-0.028033406

4.bias f4 [2]
0	0x3f73f754	0.9529927
1	0x3eb3298d	0.34992638

exp_avg f4 [64, 4]
0	0x3f8e2019	1.1103545
1	0x42d8af87	108.34283
2	0x3c071f9d	0.008247283
3	0xc0047f8c	-2.0702848
4	0xc0362282	-2.8458562
5	0x41f85524	31.041573
6	0xc0ba118a	-5.814641
7	0xbfb2ad2c	-1.3959098
8	0xc12c2b85	-10.760625
9	0xc18b0622	-17.377995
10	0xc1780d29	-15.503213
11	0x3f4bd30a	0.79618895
12	0xbe861fa9	-0.2619603
13	0xbec33ed2	-0.38133866
14	0x3dd7717c	0.10519692
15	0x3f0bc1df	0.545927
16	0x40b27ec3	5.577974
17	0x410cc766	8.798681
18	0x41071930	8.443649
19	0x3ee7068f	0.4512219
20	0x4032c24b	2.7931087
21	0x408611b9	4.1896634
22	0x409ab2af	4.834312
23	0x3f32c24b	0.6982772
24	0x3f69d978	0.91347456
25	0x438ad518	277.6648
26	0xc003daeb	-2.0602367
27	0xc0a0a354	-5.0199375
28	0x3e038c46	0.12846479
29	0x3e47107a	0.19439879
30	0x3f2975b8	0.6619525
31	0x3ef62b6c	0.48080003
32	0x40091f3d	2.1425316
33	0x42ebe313	117.943504
34	0x3fd738c2	1.6814196
35	0xc0041226	-2.0636077
36	0x3f951772	1.164778
37	0x428183b6	64.75725
38	0x3f20a3ea	0.62750113
39	0xbfac2ecb	-1.345178
40	0x3eb1e7f5	0.34747282
41	0x3f1056ed	0.5638264
42	0x3f83aea2	1.0287669
43	0x3f0448d0	0.51673603
44	0xbf975641	-1.1823198
45	0x4235d43d	45.457264
46	0xc02782d7	-2.6173608
47	0xbfa040e3	-1.2519802
48	0x3f679a42	0.90469754
49	0x3fb6ade8	1.4271822
50	0x3ff3cab2	1.9046233
51	0x3f102f58	0.5632224
52	0x4097a9d0	4.739479
53	0x432d0bf0	173.04663
54	0x40b1c39c	5.555128
55	0xc024f368	-2.5773563
56	0x00000000	0.0
57	0x00000000	0.0
58	0x00000000	0.0
59	0x00000000	0.0
60	0x00000000	0.0
61	0x00000000	0.0
62	0x00000000	0.0
63	0x00000000	0.0
64	0x3fcb92da	1.590419
65	0x40217a96	2.523107
66	0x40331280	2.7980042
67	0x3f0a966e	0.5413579
68	0xbfa25ea3	-1.2685131
69	0xbfcad8c3	-1.58474
70	0xbf90b0d4	-1.1303964
71	0xbf188ce4	-0.5958998
72	0x3fe33b59	1.7752486
73	0x4299ccfb	76.90035
74	0x400ccf0e	2.2001376
75	0xbf60f244	-0.8786967
76	0x410107c7	8.064399
77	0x414f61fc	12.961422
78	0x41523690	13.138321
79	0x3fc396e5	1.5280424
80	0x00000000	0.0
81	0x00000000	0.0
82	0x00000000	0.0
83	0x00000000	0.0
84	0x4029ded8	2.6542263
85	0x4325b650	165.71216
86	0x4003fb7a	2.062224
87	0xc033c867	-2.8091066
88	0x409f455d	4.977217
89	0x40fb0fa1	7.845658
90	0x40f2f901	7.592896
91	0x3ed6bb13	0.419396
92	0x4072bf57	3.7929285
93	0x42b631b3	91.09707
94	0x409bb45a	4.8657656
95	0xbfa0643b	-1.2530588
96	0xbf6f82e4	-0.935591
97	0xbfb3a228	-1.4033861
98	0xbeed7861	-0.46380904
99	0xbe6f82e4	-0.23389775
100	0x404289b5	3.039655
101	0x42af059f	87.51098
102	0x4058eefe	3.389587
103	0xbfc67daa	-1.55071
104	0x00000000	0.0
105	0x00000000	0.0
106	0x00000000	0.0
107	0x00000000	0.0
108	0xc11cc951	-9.7991495
109	0xc17ce9f5	-15.807118
110	0xc162c994	-14.174213
111	0x3f35870a	0.7090918
112	0xc013579d	-2.3022225
113	0x42506e68	52.10782
114	0xc0a583c8	-5.1723366
115	0xbfb58fb5	-1.4184481
116	0x00000000	0.0
117	0x00000000	0.0
118	0x00000000	0.0
119	0x00000000	0.0
120	0xbf49380d	-0.7860115
121	0xbf9a3ebe	-1.2050397
122	0xbf232bf0	-0.6373892
123	0x3efd40da	0.4946354
124	0xc0ad8e08	-5.423588
125	0x400fc5b9	2.246443
126	0xc139e3d3	-11.618121
127	0xbff8dc20	-1.9442177
128	0x40424b00	3.0358276
129	0x430906ff	137.02733
130	0x403ea990	2.9790993
131	0xc00dd5ee	-2.2161822
132	0x3fb35723	1.4010967
133	0x404ec4fe	3.2307734
134	0x409df600	4.9362793
135	0x401a1986	2.4078078
136	0x00000000	0.0
137	0x00000000	0.0
138	0x00000000	0.0
139	0x00000000	0.0
140	0x40dbb845	6.866244
141	0x4130e770	11.056503
142	0x413435b4	11.263111
143	0x3fcef7d3	1.616938
144	0x40d6b150	6.7091446
145	0x4126e7ab	10.43156
146	0x41306f2a	11.02714
147	0x3fb2b705	1.3962103
148	0x3f854c59	1.0413924
149	0x433772bb	183.44817
150	0xbf2c2fe3	-0.6726057
151	0xc04cba2c	-3.198863
152	0x40c6cc58	6.2124443
153	0x411ef53f	9.934875
154	0x4122cc83	10.17493
155	0x3f9af49d	1.21059
156	0xbf974b94	-1.181994
157	0x4217d121	37.954227
158	0xc042b598	-3.0423336
159	0xbfa34529	-1.2755481
160	0x00000000	0.0
161	0x00000000	0.0
162	0x00000000	0.0
163	0x00000000	0.0
164	0xc0a79805	-5.237307
165	0x42022981	32.54053
166	0xc1165db2	-9.397875
167	0xbfc05c11	-1.5028096
168	0xbe29d966	-0.16586837
169	0x428196fb	64.79488
170	0xbfccae6f	-1.5990733
171	0xbfb0d593	-1.3815178
172	0x021da51f	1.1581926e-37
173	0x8216ec77	-1.1088122e-37
174	0x021ee6a5	1.1674198e-37
175	0x021f1ac1	1.1689153e-37
176	0xbe3193a7	-0.17341481
177	0x42a85d33	84.18203
178	0xbfcfcb46	-1.6233909
179	0xbfd10a42	-1.6331255
180	0x40be353b	5.943998
181	0x430ab424	138.70367
182	0x40f7497e	7.727721
183	0xc001bb9c	-2.0270758
184	0x3fb8056b	1.4376653
185	0x43228af2	162.54276
186	0x3e44b035	0.19207843
187	0xc032bd14	-2.7927904
188	0x405e6b02	3.4752812
189	0x40af4ce2	5.478135
190	0x40af2840	5.4736633
191	0x3efbf365	0.49209133
192	0x3fd14819	1.6350127
193	0x42a1ec2f	80.961296
194	0x3fa05f58	1.2529097
195	0xbfbf4fae	-1.4946191
196	0xc037f96a	-2.874598
197	0x4234b7c8	45.179474
198	0xc0a84e04	-5.2595234
199	0xbfb63416	-1.4234645
200	0x40197559	2.3977873
201	0x4072cc59	3.7937224
202	0x407e3513	3.9719894
203	0x3f14495d	0.57924443
204	0xc01ecc3e	-2.481216
205	0x420efe6c	35.74846
206	0xc0a5039d	-5.156691
207	0xbfa7eb47	-1.3118676
208	0x4091ccfb	4.556272
209	0x4378018b	248.00603
210	0x4085dfa8	4.183552
211	0xc0832214	-4.09791
212	0x3fbf3c5a	1.4940293
213	0x405997d2	3.3998914
214	0x401e6954	2.4751787
215	0x3ec786ce	0.38970035
216	0x408623d6	4.1918745
217	0x40d31854	6.5967197
218	0x40d1e5e9	6.559315
219	0x3f05b8b0	0.52234936
220	0x410a690a	8.650644
221	0x430baddd	139.67915
222	0x412360a9	10.211099
223	0xbfe11e86	-1.758744
224	0x40a90d3d	5.282866
225	0x43631aa9	227.10414
226	0x40b4a6ad	5.645346
227	0xc068e3d3	-3.6389053
228	0x00000000	0.0
229	0x00000000	0.0
230	0x00000000	0.0
231	0x00000000	0.0
232	0x3ed39d1c	0.41330802
233	0x3f1eb5d5	0.61996204
234	0x3f563cac	0.8368633
235	0x3dd39d1c	0.103327006
236	0x3ffcaa57	1.9739484
237	0x4311eb0c	145.91815
238	0x3faec698	1.3654356
239	0xc016f8b2	-2.3589292
240	0xc0a623f2	-5.191888
241	0x41bdaa58	23.708176
242	0xc116b89d	-9.420072
243	0xbfc5da82	-1.5457308
244	0x400eae3d	2.2293847
245	0x42025daa	32.59147
246	0x404484af	3.0705984
247	0xbec14db6	-0.377546
248	0x4061cdf6	3.5281959
249	0x40b203f1	5.562981
250	0x40b31d78	5.5973473
251	0x3ef9edcd	0.4881424
252	0x4047102b	3.1103618
253	0x409cfc91	4.905831
254	0x409f0c10	4.9702225
255	0x3efd5076	0.4947545
